ethereum_fraud_model_nn.pth (torch, 59688 bytes, 5 tensors)

0.weight f4 [128, 45]
0.051732104 0.34526023 0.60460836 0.6767496 0.20071308 0.23345928 0.18755725 0.20811722
-0.10413615 0.29952136 0.012511009 0.16675222 0.16945441 0.1567686 0.14359558 0.33401757
0.11343545 0.32731345 0.39750263 0.5015881 0.16394518 0.30983594 0.35675657 0.15603645
0.14783537 0.025623484 0.50597566 0.06578211 0.100647084 0.09842037 -0.002054274 0.13443796
-0.085068226 0.12046759 0.018620616 0.18049015 0.033682663 0.2455727 0.24278869 0.16156748
-0.040443778 0.039137274 -0.11942695 0.016180675 0.024027131 -0.07456379 0.025006426 0.0030842533
0.3805883 0.27129462 -0.10867978 0.1567598 0.20002845 0.26049018 0.29236236 0.12640521
-0.07635409 0.2776992 0.32172707 0.18480733 0.0058593857 0.09178087 0.25354445 -0.07622527
0.066879004 0.027974218 0.3987098 -0.11637437 -0.10799426 -0.10238532 -0.018583668 0.15597136
0.02234255 0.026776617 -0.3402707 -0.11405934 -0.0011831373 0.11709638 -0.035785884 -0.015235704
-0.12465619 0.0036108305 -0.0045278408 -0.06363885 0.119879514 0.14806162 0.069367856 -0.053310983
0.25920618 -0.32831183 -0.019031476 -0.005194667 0.06144437 0.25088084 0.26233628 0.013273522
-1.0622784 -0.4355751 -0.025487963 0.09212048 0.30792624 -0.9953362 -0.09589377 -0.13669664
-0.12304269 0.05084822 -0.060040373 0.24153708 -0.058268595 0.13893306 0.049269855 0.1753447
-0.20750275 -0.15250409 0.072273605 -0.009021995 0.13676591 0.09987233 -0.0128569715 0.23056564
0.14542367 -0.06024661 -0.054926977 0.1311184 -0.026818052 0.02777212 -0.0022026163 0.071279496
-0.20138553 -0.032276984 0.008508667 -0.020231664 0.036472276 -0.11229998 0.049844727 -0.30721268
0.05404778 -0.13502878 0.26696655 -0.023972245 -0.10711161 0.12519903 0.4189999 0.17980446
0.20230243 0.27046832 -0.13224183 0.25493404 0.42175597 0.13547847 0.041994244 0.04410763
0.053020906 0.007805371 0.17726947 0.09823032 0.32846394 0.04133269 0.120782025 0.13291529
-0.010976265 0.10910387 -0.26434904 0.013131182 -0.31573868 0.11746149 0.03871925 0.112448856
-0.113284856 -0.05620668 -0.09834437 0.0023956185 -0.10477101 0.006080948 -0.02495366 -0.09288897
-0.046067692 -0.01680544 -0.15418942 -0.40039992 -0.17146076 0.06640005 -0.15098593 0.095083036
0.05452829 -0.0186145 -0.4442991 0.16325349 0.44433552 0.2821657 0.38221067 -0.13438544
0.16078249 0.21286003 0.05695277 0.08351111 -0.009149532 0.07309756 -0.06672276 0.010513266
0.07550454 -0.056881092 0.034677677 -0.04188538 0.05488891 0.024592608 0.06504372 -0.2717178
-0.10775587 -0.23401874 0.09931277 -0.042670973 0.08984126 -0.1075268 -0.02021226 -0.10192464
0.020680714 -0.12578377 -0.083170086 0.09974771 -0.056221306 -0.08725284 -0.013220355 0.058472347
-0.3944244 -0.06512451 -0.34659246 0.0004754509 -0.082240954 -0.17305285 0.031297434 0.26992574
-0.16226625 -0.16357043 0.020164149 -0.16079962 -0.6129035 -0.123765945 -0.49470213 0.052685034
0.064774945 -0.0145023875 0.013614396 0.10781393 0.09715026 0.10847689 -0.032077815 0.112440266
0.032655247 0.0003153938 0.04940504 -0.34474397 0.20182748 0.093261205 -0.07626912 -0.07926121
00000000: 0be5 533d f3c5 b03e 9dc7 1a3f 763f 2d3f
00000010: bb87 4d3e f30f 6f3e 020f 403e ae1c 553e
00000020: 5545 d5bd dd5a 993e fafa 4c3c 18c1 2a3e
00000030: 7585 2d3e f387 203e b80a 133e 5a04 ab3e
00000040: d850 e83d a195 a73e 7785 cb3e 1468 003f
00000050: 3fe1 273e d1a2 9e3e cca8 b63e 05c8 1f3e
00000060: 2862 173e 57e8 d13c 9f87 013f c5b8 863d
00000070: 0f20 ce3d 9e90 c93d 00a1 06bb 1baa 093e
00000080: 4038 aebd b6b7 f63d 438a 983c 69d2 383e
00000090: d5f6 093d 6977 7b3e 999d 783e f271 253e
000000a0: 60a8 25bd 684e 203d 1e96 f4bd 568d 843c
000000b0: 8cd4 c43c e6b4 98bd 47da cc3c 2f21 4a3b
000000c0: 78dc c23e 21e7 8a3e 8193 debd a485 203e
000000d0: 42d4 4c3e f85e 853e 85b0 953e 5e70 013e
000000e0: 885f 9cbd 972e 8e3e 69b9 a43e 223e 3d3e
000000f0: 1700 c03b 9cf7 bb3d 94d0 813e ff1b 9cbd
00000100: dcf7 883d 302a e53c b123 cc3e b055 eebd
00000110: 182c ddbd 65af d1bd c73c 98bc f5b6 1f3e
00000120: b907 b73c a35a db3c f637 aebe f197 e9bd
00000130: 8013 9bba 3ad0 ef3d 3894 12bd 2d9f 79bc
00000140: bf4b ffbd afa3 6c3b 485e 94bb 1655 82bd
00000150: 6483 f53d 779d 173e bc10 8e3d 9e5c 5abd
00000160: acb6 843e 7d18 a8be e6e7 9bbc 0638 aabb
00000170: 17ad 7b3d 7473 803e f150 863e 3079 593c
00000180: bdf8 87bf b303 dfbe 22cc d0bc aaa9 bc3d
00000190: 82a8 9d3e 5ace 7ebf f463 c4bd 34fa 0bbe
000001a0: cefd fbbd 3946 503d e5ec 75bd 7f55 773e
000001b0: 0dab 6ebd 7844 0e3e 30cf 493d 908d 333e
000001c0: 9a7b 54be 082a 1cbe 2f04 943d fdd0 13bc
000001d0: 5d0c 0c3e dd89 cc3d 0ca6 52bc 6619 6c3e
000001e0: f1e9 143e 26c5 76bd 1cfb 60bd e743 063e
000001f0: 88b1 dbbc 5b82 e33c c559 10bb fcfa 913d
00000200: 0238 4ebe df34 04bd f067 0b3c e0bc a5bc
00000210: f463 153d 88fd e5bd fc29 4c3d fb4a 9dbe
00000220: 3461 5d3d fc44 0abe d7af 883e 7161 c4bc
00000230: 555d dbbd 2d34 003e 2887 d63e a91e 383e
00000240: 5e28 4f3e d37a 8a3e 676a 07be b786 823e
00000250: 66f0 d73e deba 0a3e 2802 2c3d 34aa 343d
00000260: 732c 593d 33c4 ff3b 2186 353e fa2c c93d
00000270: 6d2c a83e 774c 293d 915c f73d f21a 083e
00000280: cbd5 33bc da71 df3d c258 87be 2b24 573c
00000290: 80a8 a1be a68f f03d 1498 1e3d 964b e63d
000002a0: e401 e8bd fa38 66bd c668 c9bd cfff 1c3b
000002b0: 2f92 d6bd b042 c73b 9e6b ccbc 933c bebd
000002c0: 7ab1 3cbd 90ab 89bc d5e3 1dbe 3801 cdbe
000002d0: 6993 2fbe c0fc 873d 0e9c 1abe e5ba c23d
000002e0: 0e59 5f3d 707d 98bc 2c7b e3be ec2b 273e
000002f0: f27f e33e 0678 903e 1eb1 c33e 569c 09be
00000300: 2aa4 243e fbf7 593e 4f47 693d df07 ab3d
00000310: ebe7 15bc 2cb4 953d f1a5 88bd d53f 2c3c
00000320: 20a2 9a3d 26fc 68bd 2e0a 0e3d 0190 2bbd
00000330: 32d3 603d 7076 c93c a435 853d 981e 8bbe
00000340: 1caf dcbd 9ca2 6fbe 7e64 cb3d c2c7 2ebd
00000350: b2fe b73d 0337 dcbd 2e94 a5bc debd d0bd
00000360: 9a6a a93c 76cd 00be 1455 aabd 8748 cc3d
00000370: 5048 66bd 9eb1 b2bd 309a 58bc b380 6f3d
00000380: fff1 c9be 0060 85bd 9174 b1be f145 f939
00000390: f26d a8bd c434 31be bd31 003d b533 8a3e
000003a0: 2029 26be 027f 27be 492f a53c a8a8 24be
000003b0: 3ee7 1cbf 0079 fdbd 9949 fdbe 43cc 573d
000003c0: baa8 843d 6c9b 6dbc ea0e 5f3c 8dcd dc3d
000003d0: b7f6 c63d 2229 de3d 0764 03bd 1547 e63d
000003e0: 82c1 053d 705b a539 f05c 4a3d 4882 b0be
000003f0: ddab 4e3e bbff be3d fc32 9cbd b453 a2bd

0.bias f4 [128]
-0.2880839 0.077822275 0.002032556 -0.13786295 -0.16256672 -0.19845644 0.13911371 -0.27218673
0.14274988 0.1781311 0.0126482025 0.12883045 -0.019914737 0.07165459 0.058340136 0.08967203
0.015682094 0.09986005 -0.17425682 -0.024397776 0.07290086 -0.021162972 -0.19542295 -0.2817832
-0.008325204 -0.06934629 -0.18721893 0.081361026 -0.17680533 0.15884416 -0.0020562578 -0.024649616
-0.21069655 0.06708293 -0.055191796 -0.33591244 -0.11773796 -0.120143816 0.027962608 0.036906436
-0.09394764 0.11589989 -0.26105478 0.19351813 -0.2330194 -0.003944271 0.12527704 -0.076782614
-0.07929093 0.038296454 -0.12863135 0.12537743 0.01198286 0.024496352 0.082578436 0.07969564
0.109962314 -0.14565119 0.102708615 0.054306973 -0.18205509 -0.02289058 -0.01061814 0.04009565
0.14161137 0.013808084 0.09926736 -0.15580477 0.13566242 -0.20175116 -0.19235502 -0.09146044
-0.060026195 0.12337033 -0.14944668 0.12222912 -0.055182427 0.074696064 -0.053159617 0.10017448
-0.07087929 0.0688579 0.08793311 0.041912366 0.013658249 -0.29370415 0.07880705 0.043642465
-0.15053965 -0.105387054 -0.027929097 -0.23457286 -0.016859408 -0.020609414 0.059968807 -0.099456266
-0.13011985 -0.03650167 -0.0907732 -0.10037518 0.10778496 -0.17814966 -0.26966697 -0.038727567
0.039413292 -0.15553336 0.015703302 -0.028952224 -0.15310095 0.01678003 0.14533815 0.032452818
0.045572482 0.18667163 0.12879162 -0.08260307 0.055535212 0.02279404 -0.23947245 -0.16767466
-0.0013144466 -0.12203352 0.02838923 0.0128016835 -0.068255804 0.13299341 -0.08432161 0.03274616
00000000: bc7f 93be 4961 9f3d a234 053b f22b 0dbe
00000010: e477 26be 2a38 4bbe d373 0e3e 0f5c 8bbe
00000020: 062d 123e 0068 363e 683a 4f3c 21ec 033e
00000030: 3b24 a3bc a4bf 923d 11f6 6e3d f8a5 b73d
00000040: bc77 803c 6d83 cc3d 6170 32be d8dd c7bc
00000050: 0c4d 953d f85d adbc f41c 48be e345 90be
00000060: 7066 08bc 6d05 8ebd 52b6 3fbe 9ca0 a63d
00000070: 750c 35be 0ba8 223e 48c2 06bb feed c9bc
00000080: d6c0 57be c662 893d cb10 62bd b7fc abbe
00000090: 9920 f1bd f60d f6bd d711 e53c 342b 173d
000000a0: 9f67 c0bd ec5c ed3d f9a8 85be 9e29 463e
000000b0: a39c 6ebe f13e 81bb a048 003e 3440 9dbd
000000c0: 4863 a2bd bedc 1c3d f0b7 03be f162 003e
000000d0: c253 443c 93ac c83c e21e a93d 7837 a33d
000000e0: ec33 e13d 9625 15be e558 d23d fd70 5e3d
000000f0: a66c 3abe 0785 bbbc b5f7 2dbc 563b 243d
00000100: 9202 113e 4d3b 623c b04c cb3d 498b 1fbe
00000110: 17eb 0a3e db97 4ebe b7f8 44be 9c4f bbbd
00000120: 07de 75bd 95a9 fc3d 8d08 19be 4353 fa3d
00000130: f806 62bd 40fa 983d e6bd 59bd 4728 cd3d
00000140: 2929 91bd 5f05 8d3d 4616 b43d 4dac 2b3d
00000150: d9c6 5f3c 6460 96be 9765 a13d 71c2 323d
00000160: 1127 1abe 2bd5 d7bd 90cb e4bc de33 70be
00000170: be1c 8abc 13d5 a8bc daa1 753d baaf cbbd
00000180: 233e 05be c682 15bd 4de7 b9bd 8191 cdbd
00000190: 5cbe dc3d dd6c 36be ca11 8abe cca0 1ebd
000001a0: d56f 213d 2344 1fbe 36a4 803c 372d edbc
000001b0: 7fc6 1cbe 4676 893c 86d3 143e 3fed 043d
000001c0: 36aa 3a3d d926 3f3e f3e1 033e cc2b a9bd
000001d0: e478 633d 91ba ba3c 4438 75be e8b2 2bbe
000001e0: 8249 acba b6ec f9bd 8890 e83c 27be 513c
000001f0: b3c9 8bbd 6d2f 083e cfb0 acbd d620 063d

3.weight f4 [64, 128]
0.08570873 -0.081874765 0.21796365 0.40531525 0.4445592 -0.31483877 0.2623945 -0.15906505
0.05291078 0.18377282 0.18002169 -0.014694165 0.3309194 0.11850728 -0.054470073 0.1364712
-0.17431925 -0.07852938 0.0033680995 0.0025031497 0.074896574 0.12338773 0.047271628 -0.15850917
0.19947012 -0.14709228 -0.4325064 0.193549 0.116008185 0.1574954 0.14295731 -0.020852566
-0.03651369 0.08933684 -0.072309256 -0.2630398 -0.2651738 0.61633044 0.02471836 -0.010016597
-0.19113937 0.063019514 -0.19804475 -0.10233145 -0.02065368 0.118242696 0.070892245 -0.41116557
0.25420186 -0.024791641 -0.25558156 0.09344578 -0.060896162 0.019154284 -0.06722046 0.05666254
0.07200567 -0.15968354 -0.10865163 -0.04807097 -0.17542464 0.19084296 0.13678999 0.037682503
0.07168449 0.009456005 0.058987446 0.09643181 -0.02890436 -0.24875434 -0.22465216 -0.033140674
-0.30563 0.261957 0.50762206 -0.026274636 -0.15474029 0.058819875 0.008063707 0.0650143
-0.17537197 -0.11742641 -0.05026819 0.059926696 0.012485793 -0.2160196 0.124145 0.039738
0.2739732 0.14579882 -0.02006092 0.17674012 0.10186333 0.24059974 -0.075500734 0.34612527
0.0011747779 0.099149905 -0.06252416 -0.11845888 0.262895 -0.22654778 -0.29500946 0.07481583
0.11436636 0.44724736 0.126881 -0.12948668 -0.13373406 -0.019628653 0.027929982 -0.048535746
0.051684137 -0.03560922 0.032994445 0.488615 -0.12362739 0.08129082 -0.26457086 0.041999597
-0.07659584 0.044427488 -0.2439908 -0.047746487 -0.0033381023 -0.0051418734 0.42886657 0.15515034
-0.1832844 -0.15425098 -0.007957373 -0.23080525 -0.012844437 0.025364416 -0.1594602 -0.0004725734
0.0057878294 -0.24482052 -0.13110709 -0.30889392 -0.52826923 -0.09430786 0.0848215 0.006383323
-0.2647544 -0.3261457 0.13720961 -0.017305683 -0.12722836 0.23945777 0.05661572 0.07329888
0.037956588 -0.12354076 0.057886858 0.043226115 -0.106004 -0.23773172 -0.009222994 -0.35446855
-0.110109664 -0.022034207 -0.1395629 0.08820863 0.043005567 -0.23003165 0.03183761 -0.15708107
-0.15262565 -0.07653801 0.3007961 -0.18915899 0.030534819 -0.23817456 -0.19694774 0.017545873
0.016287338 -0.1301013 -0.15894793 -0.1151982 -0.1562302 -0.1505757 -0.13657264 0.021518629
-0.027564537 0.053979058 -0.2737125 0.014652861 -0.0048137642 0.10142815 0.088099964 0.23377024
-0.10638129 -0.053377423 -0.24110356 -0.15128872 0.01088554 0.011846818 0.13284004 -0.022726733
-0.022176808 -0.23535809 0.12725408 -0.11377718 -0.14540426 0.10302152 -0.11867303 -0.09363307
0.043978922 -0.15987599 0.027791398 0.1054027 0.02164964 0.22241527 -0.25614354 0.20104656
-0.10687222 -0.19570169 -0.12240832 -0.13876021 0.13092726 0.14548668 -0.064452335 -0.09421583
0.039330002 0.033153176 -0.1720155 0.0038223257 0.041341178 -0.03558649 0.040563904 -0.020576615
-0.038920857 -0.1555997 0.11024519 -0.2238071 0.19232614 -0.3061565 -0.19984911 -0.138856
-0.030077955 0.05977979 -0.1881953 -0.017815454 0.11102893 -0.25728044 0.21009007 -0.15985629
-0.23124054 -0.011458172 0.08201642 -0.13629855 0.011568254 0.0044948636 -0.11411348 -0.13938865
00000000: 0f88 af3d f5ad a7bd dd31 5f3e 7b85 cf3e
00000010: 439d e33e 8c32 a1be 9258 863e f3e1 22be
00000020: f9b8 583d f12e 3c3e 9b57 383e ccbf 70bc
00000030: 456e a93e f2b3 f23d 031c 5fbd 1bbf 0b3e
00000040: bf80 32be 03d4 a0bd 55bb 5c3b e20b 243b
00000050: 6063 993d b5b2 fc3d e59f 413d 3a50 22be
00000060: e541 4c3e 5c9f 16be 7b71 ddbe b631 463e
00000070: b395 ed3d 7946 213e 6763 123e 00d3 aabc
00000080: 618f 15bd 3cf6 b63d e016 94bd 27ad 86be
00000090: dcc4 87be d5c7 1d3f 287e ca3c a71c 24bc
000000a0: 0aba 43be 6010 813d 3ecc 4abe 2793 d1bd
000000b0: e831 a9bc 3a29 f23d f42f 913d 4b84 d2be
000000c0: bf26 823e d717 cbbc 96db 82be 8060 bf3d
000000d0: 416e 79bd 72e9 9c3c e1aa 89bd fb16 683d
000000e0: b577 933d 1584 23be bf84 debd 11e6 44bd
000000f0: 84a2 33be 566c 433e ad12 0c3e f858 1a3d
00000100: 51cf 923d 5ced 1a3c d29c 713d 0a7e c53d
00000110: d6c8 ecbc 75b9 7ebe 370b 66be 84be 07bd
00000120: 897b 9cbe 3a1f 863e 85f3 013f e83d d7bc
00000130: 3d74 1ebe 1ced 703d a31d 043c 3826 853d
00000140: b694 33be 427d f0bd 05e6 4dbd b275 753d
00000150: 3691 4c3c 3e34 5dbe bc3f fe3d 50c4 223d
00000160: 3746 8c3e 494c 153e cc56 a4bc 5dfb 343e
00000170: b99d d03d c75f 763e 21a0 9abd 5537 b13e
00000180: 01fb 993a 1b0f cb3d ab0c 80bd 929a f2bd
00000190: 2c9a 863e 24fc 67be 7b0b 97be 0b39 993d
000001a0: e938 ea3d 9bfd e43e 18ed 013e 2898 04be
000001b0: 95f1 08be 45cc a0bc 6bcd e43c 6bcd 46bd
000001c0: bfb2 533d f9da 11bd 2f25 073d bf2b fa3e
000001d0: 5b30 fdbd cd7b a63d d575 87be c507 2c3d
000001e0: 48de 9cbd 99f9 353d b9d8 79be d291 43bd
000001f0: 10c4 5abb 297d a8bb 6694 db3e bbdf 1e3e
00000200: e8ae 3bbe f8f3 1dbe a45f 02bc 3658 6cbe
00000210: 7971 52bc 09c9 cf3c 8949 23be bac3 f7b9
00000220: d5a7 bd3b 3bb2 7abe f040 06be 5827 9ebe
00000230: a73c 07bf 7b24 c1bd e5b6 ad3d 322b d13b
00000240: e48d 87be 92fc a6be ad80 0c3e a6c4 8dbc
00000250: 2748 02be 6b34 753e e3e5 673d b91d 963d
00000260: 5e78 1b3d f002 fdbd c51a 6d3d de0d 313d
00000270: a018 d9bd f26f 73be 0a1c 17bc e77c b5be
00000280: 2d81 e1bd 1581 b4bc 94e9 0ebe baa6 b43d
00000290: 9b26 303d 6b8d 6bbe 2768 023d dcd9 20be
000002a0: e649 1cbe f6bf 9cbd f201 9a3e e5b2 41be
000002b0: 2824 fa3c 08e4 73be abac 49be 5dbc 8f3c
000002c0: 066d 853c 4639 05be 3fc3 22be 09ed ebbd
000002d0: cffa 1fbe 8430 1abe b3d9 0bbe d647 b03c
000002e0: 06cf e1bc 2519 5d3d 0b24 8cbe 8e12 703c
000002f0: c8bc 9dbb 90b9 cf3d c16d b43d 7761 6f3e
00000300: 6fde d9bd 49a2 5abd dae3 76be 6eeb 1abe
00000310: 4459 323c 2819 423c 3807 083e 6a2d babc
00000320: 23ac b5bc b601 71be e54e 023e 0304 e9bd
00000330: dbe4 14be f2fc d23d d80a f3bd b2c2 bfbd
00000340: 3e23 343d 88b6 23be c9aa e33c 5fdd d73d
00000350: 965a b13c d4c0 633e 3f25 83be 26df 4d3e
00000360: d3df dabd 0666 48be 37b1 fabd 2817 0ebe
00000370: cc11 063e 76fa 143e 96ff 83bd 3bf4 c0bd
00000380: 7f18 213d a0cb 073d d524 30be fc7f 7a3b
00000390: 5e55 293d 24c3 11bd 5626 263d 4a90 a8bc
000003a0: 7a6b 1fbd 8755 1fbe 3bc8 e13d b02d 65be
000003b0: 25f1 443e 8bc0 9cbe 3fa5 4cbe 4430 0ebe
000003c0: 0b66 f6bc a7db 743d 45b6 40be b7f1 91bc
000003d0: 2363 e33d 43ba 83be da21 573e 5eb1 23be
000003e0: 52ca 6cbe 0fbb 3bbc 3af8 a73d d991 0bbe
000003f0: c688 3d3c a649 933b 54b4 e9bd e6bb 0ebe

3.bias f4 [64]
0.04510202 0.14222465 0.04300633 0.0024652476 0.22130987 0.086758636 0.030101025 0.003914058
0.0010929719 -0.030116113 0.2555049 0.0070902426 0.02808026 0.11210011 0.04746377 0.22260776
0.07704906 0.0074859406 0.24391133 0.19984081 0.09532084 0.2503191 0.21404126 0.0431693
0.04585726 -0.06618836 0.24260418 0.021945728 0.23719127 0.21448931 0.20726368 -0.0409622
-0.028517377 0.18337062 -0.06595786 0.0168422 -0.21668427 0.21638584 0.008541089 0.048348177
0.22774395 0.013470442 0.025962211 -0.154942 0.27103925 0.020791734 0.004801526 0.22207303
0.2104958 0.017447768 -0.00390964 -0.0041548316 0.004761767 0.019894375 0.023460424 -0.04521251
0.2120219 0.06539883 0.2152193 -0.014656437 -0.021546118 0.2403855 0.014240867 0.25164095
00000000: e5bc 383d 57a3 113e 6827 303d fe8f 213b
00000010: 0e9f 623e 83ae b13d 6d96 f63c 8041 803b
00000020: 0d42 8f3a 11b6 f6bc 8ad1 823e 4455 e83b
00000030: 9308 e63c be94 e53d 5f69 423d 4af3 633e
00000040: e6cb 9d3d 9f4c f53b e4c3 793e 12a3 4c3e
00000050: 9337 c33d d329 803e a22d 5b3e 4bd2 303d
00000060: d2d4 3b3d c38d 87bd 3b6d 783e 87c7 b33c
00000070: 45e2 723e 16a3 5b3e ee3c 543e fbc7 27bd
00000080: 469d e9bc 82c5 3b3e ea14 87bd a7f8 893c
00000090: 7be2 5dbe 4094 5d3e ecef 0b3c bd08 463d
000000a0: b635 693e 21b3 5c3c b4ae d43c 1ea9 1ebe
000000b0: a8c5 8a3e 6d53 aa3c 1f56 9d3b 1d67 633e
000000c0: 368c 573e 9fee 8e3c 701c 80bb 4125 88bb
000000d0: 9908 9c3b 87f9 a23c 1330 c03c c130 39bd
000000e0: 451c 593e d2ef 853d 7362 5c3e 8d21 70bc
000000f0: 7c81 b0bc 9e27 763e 8752 693c 15d7 803e

6.weight f4 [1, 64]
-0.20194055 0.117388956 -0.33603567 -0.0938196 0.9636362 0.69546574 -0.31378293 -0.6816217
-0.3383469 -0.23433945 1.0868282 -0.57172245 -0.118197866 -0.09491603 -0.5099436 1.0528166
-0.0979358 -0.33637494 1.1365572 0.8734599 -0.45229277 1.0519657 0.9802377 -0.41941753
-0.44152036 0.06975135 1.1162184 -0.67136115 0.68221647 0.42085066 0.50497293 0.3255097
-0.29167253 0.38912612 0.110973045 -0.34477255 0.108488955 1.1082226 -0.51238966 -0.102713294
1.0112387 -0.32672596 -0.67910624 0.03686487 1.1736908 -0.57199574 -0.5352296 0.92698383
0.95464087 -0.07217065 -0.46266398 -0.11050899 -0.58561444 -0.4701482 -0.42593873 -0.17981078
1.3096187 0.11227323 0.5801982 -0.26246578 -0.58716786 1.1126918 -0.6750214 1.15763
00000000: 81c9 4ebe 9f69 f03d de0c acbe 7e24 c0bd
00000010: ddb0 763f 0b0a 323f 28a8 a0be c27e 2ebf
00000020: ce3b adbe aef6 6fbe 301d 8b3f 675c 12bf
00000030: b911 f2bd 5663 c2bd aa8b 02bf b2c2 863f
00000040: 9192 c8bd 5639 acbe b57a 913f 119b 5f3f
00000050: eb92 e7be d0a6 863f dcf0 7a3f e5bd d6be
00000060: f50e e2be ccd9 8e3d 3fe0 8e3f 53de 2bbf
00000070: bda5 2e3f bd79 d73e e845 013f 35a9 a63e
00000080: 1a56 95be 8a3b c73e d645 e33d 0786 b0be
00000090: 752f de3d 3dda 8d3f f82b 03bf 595b d2bd
000000a0: 4570 813f a048 a7be e8d9 2dbf 9eff 163d
000000b0: 803b 963f 506e 12bf cf04 09bf d04e 6d3f
000000c0: 5863 743f 35ce 93bd 4be2 ecbe 8a52 e2bd
000000d0: d4ea 15bf 44b7 f0be a414 dabe 5120 38be
000000e0: 96a1 a73f 82ef e53d df87 143f ea61 86be
000000f0: a250 16bf af6c 8e3f 34ce 2cbf 382d 943f
